models/cifar_torchvision.pt (torch_old, 249663 bytes, 10 tensors)

conv1.weight f4 [6, 3, 5, 5]
000000 df eb 2c 3e 65 16 03 3f 0e 51 18 3f 17 dc 6b 3e
       0.16886853 0.51206046 0.5949868 0.23033176
000010 36 18 11 be c9 f1 a9 be f0 3a 6e bc 3f 33 5e bc
       -0.14169392 -0.3319228 -0.014540419 -0.013562023
000020 1f 6c c7 be 3e 4b 6b be 9a 63 d6 be 87 81 71 bf
       -0.38949677 -0.22977921 -0.41872865 -0.9433827
000030 19 0d 8d bf e0 fe 11 bf de 0a 2a bd 24 b9 da 3e
       -1.1019622 -0.57029533 -0.04151427 0.42719376
000040 94 47 8e 3e 6e 9b f0 3e 2b e3 cb 3e 3e 1c 00 3f
       0.27788985 0.46993583 0.39821753 0.50043094
000050 fd 7a a7 bd 0f 9f 09 3e c9 e7 0d 3e e2 e2 63 3d
       -0.08177755 0.13439582 0.1385795 0.055636294
000060 c0 c2 0d 3e db 17 92 bc 93 7d ac 3e 44 7d 21 3f
       0.13843822 -0.01783364 0.33689556 0.63081765
000070 c8 2b 8c 3e 4a 92 d7 bd cf c3 8a be 12 b1 28 bc
       0.27377152 -0.10525949 -0.27102515 -0.010296123
000080 5a c7 3b 3d f0 9a a5 be 51 10 1b be d5 01 5e be
       0.045844413 -0.3234477 -0.15142943 -0.21680386
000090 59 2c 35 bf f2 c6 5d bf 8d b9 0d bf 37 57 9e 3d
       -0.70770794 -0.8663169 -0.55361253 0.07731479
0000a0 9d 85 e1 3e 84 58 05 3f d5 ea 2f 3f 12 f4 03 3f
       0.4404725 0.5208819 0.687177 0.51544297
0000b0 f9 10 25 3e 8b 2d b1 bd c2 42 b2 3c 4d ea 21 3e
       0.16119756 -0.08651265 0.021760348 0.15812035
0000c0 80 e4 1f be b5 c5 e0 be ae a2 67 bd 86 bf 14 3d
       -0.1561451 -0.43900838 -0.056551628 0.036315463
0000d0 69 75 ae 3e d9 3a 42 bd 74 f6 1d be 69 c0 86 3b
       0.34073952 -0.047419403 -0.15426046 0.0041122925
0000e0 90 f7 1d 3d 97 2d 1b 3d 96 82 e5 3a 42 1c cd 3d
       0.038566172 0.037885275 0.0017510231 0.100151554
0000f0 f3 ca 8e bd ef 69 21 bf 93 a1 39 bf a4 94 63 be
       -0.06972303 -0.63052267 -0.7251217 -0.2222467
000100 b1 f9 a2 3e 34 22 98 3e a6 86 09 3f 48 ab f7 3e
       0.31831124 0.29713595 0.5372108 0.48372865
000110 6e b7 f6 3e 7b 8f a9 3e 8d 20 18 be 92 12 12 be
       0.4818682 0.3311728 -0.14856167 -0.14264897
000120 48 5a 23 3d b6 2d 5c be 33 54 e8 be 77 19 4e be
       0.03988102 -0.21501812 -0.4537674 -0.20126902
000130 81 af 67 be d3 db d8 bd 95 91 a0 3c 4a 49 3e 3e
       -0.22625543 -0.10588803 0.019600669 0.18582645
000140 26 3e 85 be 03 30 8c be ab b4 4f be 4b 5b 00 be
       -0.26023978 -0.2738038 -0.20283763 -0.12534826
000150 05 74 03 3c bd 9b 02 be 37 85 8a be 9e 52 08 be
       0.008023267 -0.12754722 -0.2705476 -0.13312766
000160 cd a6 38 be 30 34 c0 bd 6a 62 a6 be f2 54 cc be
       -0.1803238 -0.09384954 -0.3249696 -0.39908558
000170 ea 7c b1 be 8e 67 b1 be e9 b0 4e be d5 4a 2b bd
       -0.34665614 -0.34649318 -0.20184673 -0.041819412
000180 3d 30 82 be 1c 5f b4 be c4 15 97 be 2f 45 5e be
       -0.25427428 -0.35228813 -0.29508793 -0.21706079
000190 af 6b 41 bd 15 db 85 bd 45 a9 23 3d b6 0d 23 bd
       -0.047221836 -0.06535927 0.03995635 -0.039807998
0001a0 4f fe 01 3c 2c 39 4b 3d fb ad 73 3d 85 f8 f1 3d
       0.007934167 0.04961507 0.059492093 0.118149795
0001b0 c4 d6 fc 3d ca 4b 04 3e 3b 57 24 3e b9 e7 9f 3d
       0.12345651 0.12919536 0.16048901 0.078078695
0001c0 ec 25 de 3d 41 56 94 3e 88 e5 93 3d 73 b5 83 bd
       0.10847077 0.28972057 0.07221514 -0.06431093
0001d0 41 62 6c bd 9d fe 71 3d 08 2a a1 bd 00 fa 41 be
       -0.05771089 0.05908071 -0.07869345 -0.18943024
0001e0 7f 6c 78 bc 7a 36 26 be bd 71 d5 bd e7 5b 3b bd
       -0.015162586 -0.16231719 -0.104220845 -0.04574194
0001f0 a2 77 d7 bd 25 7e a2 3b 86 ec 38 3d 66 be 61 bd
       -0.10520865 0.0049588853 0.04514744 -0.05511322
000200 93 a0 ff 3b a8 03 90 bd a1 1b 88 3e ed 72 75 3e
       0.0078011244 -0.070319474 0.2658358 0.23969622
000210 6c ef c0 3e 90 94 96 3e ea dd 83 3e 5d 1a 69 3e
       0.37682664 0.2941022 0.25755244 0.22763963
000220 47 2c d9 3e d6 84 ab 3e c6 af d2 3e aa 20 7d 3e
       0.42416593 0.33499783 0.4114973 0.24719492
000230 d6 0f ee 3d 53 1a c4 3e 8a 2c 89 3e 0b aa 4a 3e
       0.11624114 0.38301334 0.26791793 0.19791429
000240 8a 0d 1b 3c 9a 0b 9c 3d 1e da 4b 3e 41 8e b5 3d
       0.009463677 0.076194 0.19907424 0.088650234
000250 af a5 a0 3c 47 4b 2a 3e 8a 16 92 3e f3 b4 ee 3e
       0.019610254 0.16630279 0.2853282 0.46622428
000260 0f 30 65 3f 70 76 20 3f eb 02 02 3f f3 a2 5c 3d
       0.89526457 0.6268072 0.507857 0.053866338
000270 e6 a2 64 bd 00 e6 aa 3e a0 06 0a 3f d2 d4 c0 3e
       -0.055819415 0.333786 0.5391636 0.3766237
000280 a2 8e 8d bd 7c 96 87 be 92 a4 7b be 01 66 20 3e
       -0.06911971 -0.26481998 -0.24574497 0.15663911
000290 b1 a3 2f 3e 08 02 bd bd fa 1a d7 be fc 5b ff be
       0.17152287 -0.09228903 -0.4201277 -0.49874866
0002a0 72 fa c0 be 1e 75 48 be d4 41 2e be c4 ea 38 be
       -0.37691075 -0.19575927 -0.17017299 -0.18058306
0002b0 ac 4c 94 be 40 db d4 be fc ce 91 be fa cf f9 be
       -0.28964746 -0.41573524 -0.2847823 -0.48791486
0002c0 2b df a8 be c7 b8 46 be 6c d4 79 be 54 92 60 be
       -0.32982764 -0.19406424 -0.24397439 -0.2193082
0002d0 a6 3d a8 be 69 24 37 bf be e9 bf be b8 c2 54 be
       -0.32859534 -0.7153993 -0.3748302 -0.20777404
0002e0 23 75 fe bd 84 d9 8e bd 2b 97 a3 be f1 97 a9 be
       -0.12424686 -0.069750816 -0.3195127 -0.33123735
0002f0 84 cc 1e be f0 7f fd 3d ba 18 f5 3d c8 5d 2c be
       -0.15507704 0.12377918 0.11967607 -0.1683265
000300 b5 4a 9a be 18 15 d3 bd cb cc bd bd ca 6d c1 3e
       -0.30135122 -0.10306758 -0.09267577 0.37779075
000310 4f 03 13 3e a3 01 d7 bd f0 d7 f0 bd 58 09 d9 3b
       0.14356731 -0.10498359 -0.11759937 0.0066234283
000320 10 8c 01 be c3 e2 1b be a5 8d d9 bd 6a ed 75 bd
       -0.12651086 -0.15223221 -0.1062272 -0.06004087
000330 77 6f da bd ad 28 73 be c6 f0 f4 be 2b b4 02 be
       -0.106657915 -0.23745985 -0.47839946 -0.12764041
000340 13 cd 14 3d 13 0e 01 3e 41 26 96 3e e8 a9 90 bd
       0.036328387 0.12603025 0.2932606 -0.07063657
000350 0e b4 22 be 61 21 e2 3d b5 ce 60 3e 25 6f 94 3e
       -0.15888998 0.11041523 0.21953852 0.28991047
000360 c1 2f 4f 3e dd 86 2c bd 7e 01 96 bb 2e f7 75 3e
       0.2023306 -0.042120803 -0.0045778146 0.24020073
000370 2b 84 e6 3e 98 9b 58 3e 56 28 8b 3e d9 2a a8 3d
       0.4502271 0.21153104 0.2717921 0.082112975
000380 64 b8 77 3e f2 f1 c6 bd 67 ee b8 3e 69 a1 6a 3e
       0.24191433 -0.09714116 0.36119387 0.22913136
000390 d9 e4 84 be 31 05 46 be 69 84 54 be c5 f1 e9 3e
       -0.25955847 -0.19337918 -0.20753635 0.45692268
0003a0 ab 0b 2f be f4 bf 97 be 0e fb 3b bd f8 68 b6 3e
       -0.17094295 -0.29638636 -0.04589372 0.3562696
0003b0 12 4e 8d be f8 4b 0a bf 1e 5e ba 3e cf 1d de bd
       -0.27598625 -0.5402217 0.3639993 -0.10845529
0003c0 a2 c5 45 3e af c2 3c bf 60 1c 26 bf 55 5c 3c 3f
       0.19313672 -0.73734564 -0.64887047 0.7357839
0003d0 a4 e2 78 3e 8a be cf 3a 43 79 4c be ac 81 83 be
       0.24305207 0.0015849632 -0.19968133 -0.2568487
0003e0 6b 46 cd 3c a0 8c 2d 3e 16 08 14 be 89 0c f8 3d
       0.025057992 0.16948175 -0.1445621 0.12111766
0003f0 ce ac a9 3e 91 e6 9f bd 29 88 94 3d 03 6c 9c bd
       0.33139652 -0.07807649 0.07252533 -0.07637789

conv1.bias f4 [6]
000000 de fe bb be bb 5d a0 3e 20 14 10 bf 87 e7 3d be
       -0.36717886 0.3132151 -0.5628071 -0.18545352
000010 41 0f 6f be 62 1a a0 bd
       -0.23345663 -0.07817532

conv2.weight f4 [16, 6, 5, 5]
000000 6e 28 8c 3c ea 0e eb 3d 94 56 b0 3c 05 ec 47 bd
       0.017109122 0.11477454 0.021525659 -0.04880907
000010 91 30 f7 bd c4 49 f3 3c 85 b7 a9 bc 62 f9 d0 bd
       -0.1206981 0.02969826 -0.020717392 -0.10203816
000020 33 a3 59 be bf 64 58 be 75 35 ff 3b 3e ad 94 be
       -0.21253662 -0.21132182 0.007788355 -0.29038423
000030 78 99 e7 be 50 e3 96 be 86 c3 09 be 06 21 bc 3c
       -0.45234275 -0.294703 -0.13453493 0.022964966
000040 6c fc 9f be b4 cb e0 be a4 af 95 be 7a 21 09 be
       -0.3124727 -0.43905413 -0.29235566 -0.13391677
000050 1a 43 80 bd 70 26 57 be b6 02 38 be 1d 58 c4 bd
       -0.062627986 -0.21010756 -0.17969784 -0.09587119
000060 35 9f dd 3c d7 a1 ae 3d 8b c9 6c 3d c1 b1 b9 bd
       0.027053455 0.08526962 0.057809394 -0.09067107
000070 dc 95 c4 3d 22 44 d0 3d b5 48 e7 3d c7 7a 30 3c
       0.09598896 0.10169245 0.11293165 0.01077146
000080 64 3b 1e be e2 ff a3 bd a2 bf b5 bd ca f6 22 3e
       -0.15452343 -0.0800779 -0.08874442 0.15914455
000090 64 d7 00 3d f7 2d 46 be 44 b5 00 be 59 2e 67 39
       0.031455413 -0.19353472 -0.12569147 0.00022047143
0000a0 0b ca 1e 3e 81 8c 99 3d dc c5 53 be 6b e3 2a be
       0.15506761 0.07497502 -0.20680946 -0.16688316
0000b0 a3 ce 42 bb 24 b3 81 3e 7d fe 97 3d 5c 60 ea bd
       -0.0029725216 0.25331986 0.07421587 -0.1144416
0000c0 8a a3 ca bd 6b c1 14 3d 00 13 b5 3e 7f b6 42 3e
       -0.09894474 0.03631727 0.35366058 0.19014929
0000d0 d8 a2 06 be d5 6b 2c be 72 67 3b be a6 e4 bc 3e
       -0.13148057 -0.1683801 -0.1830118 0.36893195
0000e0 1b 7a 9e 3c aa bc 4a be 74 25 ed bd 2e 03 36 bc
       0.019345334 -0.19798532 -0.11579409 -0.0111091565
0000f0 38 9d 63 3e d6 47 a9 3c 6e d5 96 be ff f3 ec bd
       0.22227943 0.020664137 -0.2945971 -0.11569976
000100 a6 51 9d bd 2f 13 68 3e 75 c1 c2 bd f4 e7 46 be
       -0.07681589 0.22663568 -0.09509555 -0.1942442
000110 09 ac 3d be 73 04 0e 3c ff a7 c6 3d d1 7a c8 bd
       -0.18522657 0.008668053 0.097000115 -0.0978905
000120 2c b8 8f bd 07 1b 10 be eb c1 9b bc 3d 14 79 3e
       -0.0701755 -0.1407281 -0.019013366 0.24324127
000130 9d 88 98 3e 0d 5f d0 bd f9 68 82 be 50 ef aa be
       0.29791728 -0.101743795 -0.25470713 -0.33385706
000140 22 02 4f 3e 09 1f a0 3e 68 d5 dc bd af e0 15 be
       0.20215657 0.31273678 -0.107828915 -0.14636491
000150 1f 90 3a be c1 bd 50 3e c0 bb 18 3e 96 fc 8e be
       -0.1821904 0.20384885 0.14915371 -0.27927083
000160 07 b3 30 be 91 8b f2 bd 13 7a 0a 3e 2a 28 84 3d
       -0.17255794 -0.118430264 0.1352313 0.06452973
000170 92 ee 2a be c8 8b 52 be a4 ac c6 bd 2c b1 42 3e
       -0.1669257 -0.20561135 -0.09700897 0.19012898
000180 11 d8 12 be b2 f3 62 be 93 64 2a be 61 d6 64 bd
       -0.14340235 -0.22163275 -0.16639929 -0.05586851
000190 5c a0 94 3d 5d c3 15 be 64 0c af 3d 74 75 dd 3c
       0.072571486 -0.14625306 0.08547285 0.027033545
0001a0 ed ae e3 3b 19 a1 c4 3c 09 44 03 be 29 1c 50 3e
       0.006948343 0.024002599 -0.12818922 0.20323242
0001b0 c9 69 ef 3d 89 8f 6f be 66 18 6e 3c 65 e8 e7 3c
       0.11690099 -0.23394598 0.014532184 0.028309057
0001c0 96 4b ac 3e ec 93 46 3d 1f 1d 66 be a0 15 94 bc
       0.33651417 0.048480913 -0.22472046 -0.018076718
0001d0 b7 a9 08 3e 78 99 ac 3e b5 86 d6 3d 37 fc 38 be
       0.13345991 0.33710837 0.10474912 -0.18064962
0001e0 46 db 69 bc ea 3d 07 3e 6b bc ba 3e ac 5c 96 3e
       -0.01427347 0.13207212 0.36471877 0.29367578
0001f0 d2 01 af bd 81 37 ce bd 08 56 21 bd 9d 23 02 3e
       -0.08545269 -0.1006918 -0.039388686 0.12708898
000200 cc 04 46 3e 0f 35 57 3e ff 5f 3c be 3e 49 cb bc
       0.19337767 0.21016334 -0.18395995 -0.024815198
000210 cf 31 b2 3d b2 9e 28 3e bb db b3 3d 94 67 51 be
       0.087009065 0.16466787 0.08782145 -0.20449668
000220 fb cd 5d be 90 9e 94 bd 91 c5 92 bd 85 3e 73 bd
       -0.21660607 -0.07256806 -0.07166589 -0.059385795
000230 b7 64 45 be aa 6e 95 bd c1 d3 b7 3d c7 36 4b bd
       -0.19276701 -0.07296498 0.08975936 -0.049612787
000240 d9 03 e0 bd e4 90 bf bd ae e3 d4 3d b3 59 04 3e
       -0.10938234 -0.093538076 0.10394989 0.12924843
000250 6a d9 a7 3c fd ac 32 be 37 b6 a2 bd 59 58 d1 3c
       0.020489413 -0.17448802 -0.07944911 0.025554823
000260 0d 85 aa 3c bb 7b 90 3c 7e 0f 0e bd 29 a8 0e be
       0.020815397 0.017637124 -0.034682743 -0.13931336
000270 60 c2 37 be d7 55 0f be 96 fc 2b 3d ce 9f 99 3e
       -0.17945242 -0.13997589 0.04198893 0.30004734
000280 6d 64 45 bd 2a 3b ac be 29 7a 19 be d4 62 d1 3d
       -0.048191477 -0.3363889 -0.14988007 0.10223928
000290 71 1f dd 3d e8 b1 0b be ec 1d 30 bc a4 ef 9e bd
       0.107970126 -0.13642085 -0.010749321 -0.077605516
0002a0 5f bf b6 bd 04 b4 06 3e 06 6e 06 3e eb 24 d6 3d
       -0.0892322 0.13154608 0.13127908 0.1045626
0002b0 f6 1d a1 bd 80 b2 e4 bd 6e 5b f5 bc df 08 02 3d
       -0.07867043 -0.11166859 -0.029950824 0.03174674
0002c0 4f b8 f9 bd 7a 0e 2e be 94 1e e6 bd 8b 5f 8d 3d
       -0.12193357 -0.1699771 -0.11236301 0.06902989
0002d0 d0 a7 35 3e 0f 89 08 bd ed 7e e5 bd f3 ab 6a be
       0.17739797 -0.033333834 -0.1120585 -0.22917156
0002e0 f2 39 4f be b9 0d 81 3e b2 fb 07 3e 24 4a 47 be
       -0.20236948 0.25205782 0.13279608 -0.19461876
0002f0 73 8d 9b be e9 56 aa be 90 81 d1 3e 77 c0 5e 3e
       -0.30381355 -0.33269432 0.4091916 0.21753107
000300 f4 27 98 bd 0e ec 90 be 8d 77 ba be f8 9e 91 3e
       -0.074294955 -0.28305095 -0.36419335 0.28441596
000310 93 c4 8c 3e b2 06 e1 3d ae 6c 68 bd bb e4 5d be
       0.27493724 0.10987605 -0.05674427 -0.21669285
000320 17 6b 8b be 9a 9a b2 bd 3f 1f 1c 3d 7a bc 75 3e
       -0.2723014 -0.08720894 0.038115736 0.2399768
000330 38 82 fc 3e 36 6f a2 be 3a 00 d2 bd f4 76 0c be
       0.493181 -0.31725472 -0.102539495 -0.13717252
000340 25 f9 86 3d 75 e5 e2 3e 90 5f 4e be fd 98 14 be
       0.06590489 0.44315687 -0.20153642 -0.14511485
000350 40 54 e7 bd 5d 1d 2a 3d 3e 75 3f 3e 92 1e 26 be
       -0.11295366 0.04153191 0.18697068 -0.16222599
000360 d6 ef d7 bd 4f f3 1f be c4 a8 0b be 7f 4c 41 3e
       -0.10543792 -0.15620159 -0.13638598 0.18876837
000370 b3 f0 59 be b8 9b 69 bd a2 ca 89 bd a1 2d 18 be
       -0.21283226 -0.05703327 -0.06728102 -0.14861156
000380 69 c5 00 bd 3f b3 07 be ea 7a 34 be ac 7f 26 be
       -0.031438265 -0.1325197 -0.17625013 -0.1625964
000390 61 4f 29 be 19 4f 35 bd 2f 3e 5f be ef f3 11 be
       -0.16534187 -0.044264887 -0.21801065 -0.1425321
0003a0 fc 07 af be 6e f5 82 be 9c 1b a4 be 45 5a a7 bd
       -0.3418578 -0.25577873 -0.32052314 -0.081715144
0003b0 fb ae 04 be a3 a0 2d be 8a bf 01 be ac 38 72 bd
       -0.12957375 -0.1695581 -0.12670723 -0.059136078
0003c0 cd 75 8c 3a fb ad d1 3c 08 3c 12 bd aa 10 87 bd
       0.001071626 0.025595656 -0.03570178 -0.06594975
0003d0 08 15 bc bd 28 f7 4c 3c 49 4d 72 bc 84 c2 2b 3e
       -0.09183699 0.0125100985 -0.014788934 0.1677342
0003e0 e4 d3 92 3b ee bc c3 3d df 76 c7 3d 5a f6 f6 bc
       0.0044808257 0.0955752 0.0973947 -0.030146766
0003f0 31 61 73 bd 74 96 26 bd 09 1e f4 bc a0 5a 6d bc
       -0.05941886 -0.040670827 -0.029799478 -0.014486939

conv2.bias f4 [16]
000000 29 21 fb bd 10 be ed 3e ef 9e fa be 11 b5 6b bf
       -0.12262184 0.4643407 -0.48949382 -0.9207316
000010 47 66 ad 3e 6a 05 e5 bd 54 bf 69 be c4 51 9c 3d
       0.33867094 -0.11182673 -0.22826892 0.07632783
000020 3a 9b cc 3f db 5b 25 3f a9 b4 a5 be 16 5f 86 3f
       1.5984871 0.64593285 -0.32364395 1.0497768
000030 df f8 41 3f d0 a1 54 3f d5 ef cb 3e 27 5f 94 bf
       0.7577037 0.83059406 0.39831415 -1.1591538

fc1.weight f4 [120, 400]
000000 94 ae 57 bd 9c d3 7b bd 6b fe 03 3c 46 92 48 bd
       -0.052656725 -0.061481103 0.008056263 -0.048967622
000010 ce a6 98 bd f1 3b 88 bd a5 b6 05 3d 3b 8e b8 3c
       -0.074536905 -0.06652058 0.032644887 0.022528758
000020 f1 b2 bc 3c f3 5f 86 bd 5f 37 bc bd ed 66 9a 3d
       0.023034545 -0.065612696 -0.09190249 0.07539163
000030 d0 74 0d bd 64 56 16 3d 2e 4d 05 bc cd ba 7a 3b
       -0.03453523 0.036703482 -0.008136077 0.0038258315
000040 58 bc 53 3d a6 44 01 bd fa d4 f1 bc df ca 31 bd
       0.05169329 -0.03155961 -0.0295205 -0.043406364
000050 00 e7 74 bb 8d bd 87 bb 1a 09 10 bd a4 69 96 bc
       -0.0037369132 -0.0041424693 -0.03516493 -0.01836092
000060 a6 2a 63 3c c9 89 94 3a 21 17 aa 3c b8 20 5b bc
       0.013865149 0.0011332567 0.020762982 -0.0133745
000070 7f 03 63 3d 98 eb 20 bd 68 ad b3 3a 09 e3 8b 3d
       0.055423256 -0.03928718 0.0013708295 0.06830413
000080 b2 51 bc 3b 33 44 a9 3c fd 88 e7 3a 6f a8 63 bc
       0.0057470435 0.020662403 0.0017664727 -0.013895138
000090 ae 88 2b 3d 8d 76 0d 3d cd 16 87 bd d3 28 0b bd
       0.041878395 0.034536887 -0.06596146 -0.03397448
0000a0 7f 52 c4 bd 37 62 91 3d ae 88 c2 3d 3d 25 64 bc
       -0.095860474 0.07098811 0.09498726 -0.013924894
0000b0 2d 7d 16 bc 21 d4 34 bb 8c 1d a0 bc c7 eb 51 3c
       -0.009185118 -0.002759226 -0.019545339 0.012812561
0000c0 dc a5 b4 bb 00 f5 2d 3d 44 e9 24 3d 80 fa 5a bd
       -0.005512936 0.04246998 0.040261522 -0.05346155
0000d0 86 53 ed 3c d8 9d 61 bd 6c 3c 19 bc af ea c0 3c
       0.028970491 -0.055082172 -0.009352785 0.023549406
0000e0 05 6c 22 3c d9 c8 4d bd c5 a7 71 3c 8c 36 64 bc
       0.009913449 -0.05024037 0.014749472 -0.013929021
0000f0 f5 af 21 3d 74 c0 07 3d 7c 82 90 3d d2 f4 2f bc
       0.039474446 0.033142522 0.07056138 -0.010739522
000100 25 f5 07 bc 0a be 96 3d 40 ba 81 bd f2 29 14 bd
       -0.008298193 0.07360466 -0.063343525 -0.036172815
000110 7e f0 f5 bc e6 c3 23 3c 64 fb 16 3d 4c d0 7c bd
       -0.030021902 0.009995436 0.03686084 -0.061722085
000120 0b fa f3 bd e0 97 0c be ac 1d e3 bd 81 08 3c 3a
       -0.11912926 -0.1372981 -0.11089644 0.0007172898
000130 3c 0e bb 3b 16 85 78 3d 0e ff 75 3d d9 1a 51 3d
       0.005708484 0.060673796 0.060057692 0.051050995
000140 ee fa a2 bd ec 1f 74 bd 31 33 43 3c 06 76 f7 bc
       -0.07958017 -0.059600756 0.01191406 -0.030207645
000150 c3 80 a2 3c 15 40 f9 3c 34 6d b9 3d b8 c9 a3 3d
       0.019836789 0.030426065 0.09054032 0.07997459
000160 9b 87 59 3d 67 01 24 3d a0 7f 5b 3c 2d 60 d8 3c
       0.05310784 0.0400404 0.013397127 0.026413048
000170 e6 58 ec bb 68 99 41 3b 3b c7 b6 bc 1a 3e 15 3c
       -0.007212746 0.00295409 -0.022311797 0.009109044
000180 55 4f ec bc 49 48 bb bd 7c af ba bc f8 cd 20 be
       -0.028846422 -0.09144647 -0.022788756 -0.15703571
000190 1f a7 ca bc 36 51 79 bd 40 ed 33 bd 1d 87 7b bd
       -0.024737893 -0.060868464 -0.04392743 -0.06140815
0001a0 e4 02 35 bd 7d 34 39 3d b3 4d 16 3d 63 13 e3 3b
       -0.04419221 0.045216072 0.036695193 0.0069298013
0001b0 8e 34 33 bd cd 28 56 bc dd 09 96 3d 6c e9 39 3d
       -0.043751292 -0.013071251 0.073261 0.045388624
0001c0 bd 34 e1 bc 56 51 05 bc 9d 6b 20 bd 4e 80 35 bd
       -0.027490968 -0.008137068 -0.039165128 -0.044311814
0001d0 78 12 7f bd 52 31 42 bd a6 60 9c 3c 91 1d ca bc
       -0.062273473 -0.047410317 0.019089054 -0.024672301
0001e0 9b c9 78 3c 54 4b f0 bc c6 81 44 3d e1 3f ca 3c
       0.015184785 -0.029332794 0.047975324 0.024688663
0001f0 ef 76 6d bc 43 d2 88 3a 4f 64 c1 bc 68 05 50 bd
       -0.014493688 0.001043864 -0.023607401 -0.050786406
000200 0a fa dd bc 73 10 9a 3b 1a a9 da 3c 89 bf c2 bb
       -0.027096767 0.004701668 0.026691962 -0.005943243
000210 a6 be 09 bd ee 7e 5e bd cf 1e 14 bc 31 cc 0d bd
       -0.033629082 -0.05432027 -0.0090405485 -0.03461856
000220 fd 15 84 bd 57 f1 94 bd a0 40 a7 bd 9a 7d 47 bd
       -0.064495064 -0.072725944 -0.08166623 -0.048703767
000230 ba 54 2a 3c 11 93 36 3d 1a 04 5c 3d ae f5 7e bb
       0.010396177 0.044573847 0.05371485 -0.003890376
000240 f8 fb 73 bd df dd 46 3c 15 d1 90 bc 2b 0d 89 3d
       -0.059566468 0.012137859 -0.017677823 0.06691965
000250 1f 07 d1 bd 22 1b 97 bd 8e e1 26 3e 0d 2d c1 3d
       -0.10206436 -0.07378222 0.1629698 0.09432421
000260 d8 82 bc 3d 66 46 96 3d 9d 72 90 3d f1 83 a3 3d
       0.09204644 0.07337646 0.07053111 0.0798415
000270 e0 de 21 3d 05 c0 5e 3d 4d f5 b5 3d 10 52 04 3d
       0.03951919 0.054382343 0.08884678 0.032304823
000280 a5 99 e0 bc ee 98 1f bd 09 df 8e 3c eb 37 21 3d
       -0.027417013 -0.038964204 0.017440336 0.03935997
000290 45 5c 6e 3c 22 be 74 bd ef 13 05 bd 40 e9 e7 3c
       0.014548366 -0.059751637 -0.032489713 0.028309464
0002a0 ea 01 1e 3d 48 5b cb 3d 3a 4e 98 bd fc b7 48 bd
       0.038576044 0.0992952 -0.074367955 -0.049003586
0002b0 30 b2 88 3d 09 fe 24 3c 9c 11 a9 3c da f6 48 bc
       0.066746116 0.010070332 0.02063828 -0.012265885
0002c0 69 69 99 bd 17 76 a4 bd b4 53 dc bd 13 0d c2 3c
       -0.074908085 -0.08030336 -0.107581526 0.023687875
0002d0 34 70 13 bc 2a 0e 34 3d 60 f0 7d 3b 63 2d 5b 3c
       -0.008998919 0.04395882 0.003874801 0.01337752
0002e0 8d 27 98 3b 80 7f 7f bd 2d 8e 08 ba 34 56 ac 3c
       0.0046433867 -0.062377453 -0.0005209174 0.021037199
0002f0 eb f8 69 3b b1 36 aa bc 72 1c 7e 3b 92 08 4d bd
       0.0035701345 -0.020778032 0.003877428 -0.050057
000300 11 1f 6c 3b d4 83 c9 bc 00 0f 71 bd bd 7c 20 bd
       0.003602926 -0.024598993 -0.058852196 -0.03918146
000310 f0 fa 48 bd 33 dc c1 3c 96 97 e8 bb 39 f7 2c bd
       -0.049067438 0.02366457 -0.0070981486 -0.042227957
000320 75 bd e1 3b df 01 ea 3b d2 0e 2f bd ac 40 20 bd
       0.00688904 0.0071413363 -0.042738743 -0.039124176
000330 aa 55 a3 bd f1 08 d3 bc dd db 5e bd 2f 87 7d bd
       -0.079753235 -0.0257611 -0.054408897 -0.0618965
000340 8a fa 40 bd 12 69 1c 3d 37 1d 25 bc 2b 4e 11 3d
       -0.047113933 0.03818614 -0.010077766 0.035474937
000350 a9 08 ec 3c af 07 8e 3d 83 34 47 3d dc c4 15 bb
       0.028812723 0.06935059 0.048634063 -0.0022852933
000360 25 41 e1 3c d2 bf a6 bc d9 31 aa 3b 66 c5 89 3d
       0.027496884 -0.020355139 0.0051939306 0.06727104
000370 03 ea da bb 22 63 83 bd eb 9f ef 3c e1 70 99 3d
       -0.0066807284 -0.064153925 0.02925106 0.07492233
000380 c3 45 25 3c 43 f0 9e 3d 86 2d 31 bc f3 ad db 3c
       0.010087433 0.0776067 -0.010814076 0.026816344
000390 33 da 6a 3d 9c b7 ad 3d 78 ed 9d 3d a4 b7 f2 3c
       0.057336997 0.08482286 0.07711309 0.029628582
0003a0 a3 92 ae 3d 29 3e 91 3d d2 d5 3b 3d 9a 43 4d bd
       0.085240625 0.07091934 0.04585821 -0.050113298
0003b0 77 f6 46 bd 22 b5 8a bd e3 aa 85 bb ee 66 61 bc
       -0.04857489 -0.067728296 -0.004079209 -0.0137574505
0003c0 63 64 bd bc 77 ab c5 ba 73 6b 2e 3d d8 5c cc 3c
       -0.023119157 -0.0015081008 0.04258294 0.024946615
0003d0 c1 88 88 bc 83 94 f0 bc ca 35 a0 3c 04 75 57 bd
       -0.016666772 -0.02936769 0.019556899 -0.05260183
0003e0 da 3e dd bc ae 36 6c bd a0 f1 e4 bc 49 aa b7 3d
       -0.027007509 -0.057669334 -0.027947247 0.08968026
0003f0 84 7b 01 bb e2 aa b4 3a 38 78 e9 3c 03 0a a6 3c
       -0.001975746 0.0013783837 0.028499708 0.020268446

fc1.bias f4 [120]
000000 27 92 10 bd 07 7c 7f bd 0e d8 0d 3d 45 e9 3d 3d
       -0.03529563 -0.06237414 0.034629874 0.04636504
000010 60 49 1b ba 94 29 8b 3d e9 69 44 3e cc d8 0b bd
       -0.00059237145 0.0679504 0.19181027 -0.0341423
000020 fd a9 ab bd 18 27 52 3e 3b db 74 3d 7b 64 9c 3c
       -0.08382032 0.20522726 0.059779387 0.019090882
000030 86 52 37 3d 66 36 90 3c 06 01 92 bd 77 ef d4 3c
       0.044756435 0.017604064 -0.071291015 0.025993092
000040 b9 15 14 bd b0 76 73 3e 60 6c bb 3d b8 84 22 bd
       -0.03615353 0.23775744 0.0915153 -0.03967735
000050 9e 90 e6 bc 15 5f d0 bc 7e 11 7f bd e2 17 51 3e
       -0.02814513 -0.025435964 -0.06227254 0.20419267
000060 0d 0c 26 be c9 e8 91 bd b5 f2 69 bd f2 aa 48 3d
       -0.16215535 -0.07124478 -0.05711623 0.04899115
000070 ac 2f 2a bd f6 44 e5 bd 5b 5a 1c 3b c4 76 6a 3e
       -0.04154937 -0.11194794 0.0023857567 0.22896868
000080 2a a9 21 3e af 18 1a bc 44 a5 fa bc 09 19 31 3d
       0.15787187 -0.009405299 -0.030596383 0.043236766
000090 25 6a be 3c 8f 46 8a 3e c2 9b 08 be 96 69 9f bc
       0.023243973 0.27006957 -0.13340667 -0.019459527
0000a0 21 a9 de 3d ce 1c 8a 3c cd 2b b2 3d a5 9d 70 3e
       0.108721025 0.016859438 0.086997606 0.23497637
0000b0 c2 20 73 3d 3e 53 f0 bd 11 6b d9 3d ad 61 f0 3c
       0.059357412 -0.11734627 0.106161244 0.02934345
0000c0 e6 22 c4 3d d5 06 41 bd bb 3a d8 bc 23 14 79 3e
       0.09576969 -0.047125656 -0.026395192 0.24324088
0000d0 41 ca 87 bd 5e 8c 45 3e b2 e9 45 bd 54 05 c7 3c
       -0.06630374 0.19291827 -0.048318572 0.024294533
0000e0 b6 17 65 3e ae da 0a 3e 57 17 0a 3e 38 61 e1 3d
       0.22372326 0.13559982 0.13485466 0.11004871
0000f0 96 56 55 3e d7 47 b6 bb a1 13 ce 3b 3c d5 71 3b
       0.20833811 -0.005562763 0.006288961 0.003690078
000100 ce 36 62 3b 47 a4 98 3e aa fb 82 bc 12 ff ec 3b
       0.003451753 0.29812834 -0.015989143 0.007232555
000110 3a 8c 14 3d 86 b8 52 bc 89 31 88 bc 6d 82 09 3d
       0.036266543 -0.012861377 -0.016625183 0.03357165
000120 5d b1 d4 3d 98 63 d0 3d c8 6a de bb 4c 8a db 3d
       0.10385392 0.10175246 -0.0067876317 0.107197374
000130 3d f6 45 be 08 33 2f 3c c9 54 35 bc bf 79 9e 3c
       -0.19332214 0.010693319 -0.011067578 0.019345162
000140 9c 9d dc bc 0d 98 06 3e 0c f8 34 bd d4 e9 e8 bc
       -0.026930623 0.1314394 -0.04418187 -0.02843181
000150 79 f2 4d bd 63 57 92 3e 12 90 c5 3d f7 00 cc bd
       -0.050280068 0.28582296 0.0964662 -0.099611215
000160 d2 d9 97 3e d9 28 55 be 2d 41 65 bd 6c 3b 93 3e
       0.2965837 -0.20816363 -0.05597036 0.28756273
000170 93 27 83 3e aa e1 9b bd 8a 1b 17 be 1f fe c1 bd
       0.2561613 -0.076114014 -0.14756599 -0.09472298
000180 af 68 db 3d 46 07 84 3d a5 3d 82 be 58 1b e4 bc
       0.10713326 0.064467 -0.25437656 -0.02784507
000190 c3 7e e8 3c 46 23 01 3d de bd b7 bd 68 35 23 3e
       0.028380757 0.03152778 -0.08971761 0.15938342
0001a0 53 b2 c9 bd b4 d8 2c bd 19 fb 15 bb 5d f1 87 3e
       -0.09848466 -0.04219885 -0.0022885262 0.26551333
0001b0 85 a9 1a 3e f7 e0 b6 3d 9d 73 a5 3d ef 02 6f 3d
       0.15103729 0.089296274 0.08078692 0.058352407
0001c0 5d b6 d8 bd 7f 43 af 3d e0 28 1c bc 35 8f 77 3b
       -0.10581658 0.08557796 -0.00953123 0.0037774567
0001d0 4a c5 99 3e 46 d3 59 3c d8 56 10 bd ab 5c 19 be
       0.30033332 0.013295 -0.03523907 -0.14976756

fc2.weight f4 [84, 120]
000000 75 e7 85 3d f0 dc 90 3d 89 9a ad 3d f9 8a ed bb
       0.065382876 0.070733905 0.08476741 -0.007249233
000010 c3 3d 88 3d a3 18 21 bc 08 89 38 be b9 4f 83 3d
       0.06652405 -0.009832534 -0.18021023 0.0641169
000020 8e 88 b4 3d b2 e1 bb 3b f7 8e 73 b9 65 a4 8a 3d
       0.08815108 0.005733692 -0.00023227544 0.06769637
000030 61 c7 5f 3e 94 8d ca bd 7a 1b d6 bd c1 52 18 3e
       0.21853401 -0.09890285 -0.104544595 0.14875318
000040 82 da 40 3c 0a fd 9d bd 56 1c ac bd 5e 39 38 3e
       0.011770846 -0.07714279 -0.08403842 0.17990634
000050 32 58 55 bc d5 70 a0 3c 65 3a ec 3d da 80 8d 3c
       -0.013021516 0.019585053 0.115345754 0.017273355
000060 9e 6e 39 3e c8 ff 03 be a6 0c 93 3d 73 9b bb bd
       0.18108603 -0.12890542 0.07180147 -0.09160509
000070 86 34 73 3d 22 45 31 bd ba 9d b4 bd 4c 01 7f bc
       0.059376262 -0.04327882 -0.088191465 -0.015564274
000080 dc 6a aa bc f0 e6 9a bd 9c 84 b0 bc e9 bf e3 bc
       -0.020802908 -0.07563579 -0.021547608 -0.02780147
000090 1d 0d ce bd 0e af 15 be 34 39 f4 bd c3 72 20 3e
       -0.10061095 -0.1461756 -0.11924973 0.15668778
0000a0 7f d6 ef bc b9 79 ad bd 9e d6 b0 bc f5 1f 4d 3d
       -0.029277084 -0.084704824 -0.021586712 0.050079305
0000b0 02 34 48 bd 39 fb 8b bc 5e ec 20 be 67 2b c1 3d
       -0.048877724 -0.017087566 -0.15715167 0.094321065
0000c0 92 be a4 bd ee af 50 3d fc e8 fb bb 35 f0 b6 bc
       -0.08044161 0.05094903 -0.007687686 -0.022331337
0000d0 01 96 11 3d 64 02 40 3d 07 17 46 bd e7 7c e8 3d
       0.035543445 0.04687728 -0.048361804 0.11351948
0000e0 07 f7 96 bd c9 e0 0c bd cb 59 37 bd 32 55 f3 bd
       -0.073713355 -0.03439406 -0.044763368 -0.11881484
0000f0 fb 43 f8 bc 09 19 a4 3d 27 01 1b be 8b 05 40 bd
       -0.030305853 0.080125876 -0.15137158 -0.046880286
000100 a3 da 0c bd 67 0a 55 bd f2 ad 31 bd 67 14 37 3d
       -0.034388196 -0.052011874 -0.043378778 0.04469719
000110 07 3b 96 3d 61 17 d9 3d b2 22 17 be 30 0b e6 3d
       0.07335477 0.10600162 -0.14759329 0.112326026
000120 df 71 37 be f3 b2 40 bd 96 fc c9 bd 74 64 24 3e
       -0.17914532 -0.04704566 -0.0986263 0.16053945
000130 da f2 ad 3c 73 3c fd 3d 3a 54 01 bd e2 de 7f bd
       0.021233965 0.123650454 -0.031574465 -0.062468417
000140 86 c3 18 3e 7c 01 39 bd cd 05 82 bc e4 88 c0 3d
       0.14918336 -0.04516743 -0.015871907 0.0940111
000150 e8 64 15 3e 2a 63 78 be 0e 40 e3 3d 58 42 07 3d
       0.14589274 -0.24256578 0.11096202 0.033022255
000160 da 84 22 bd 1a f8 b7 bb ce 85 4c bd 03 1a bb bd
       -0.03967748 -0.005614293 -0.049932294 -0.09135821
000170 83 fb 41 be 8d 8c dc 3d aa 8a 8a 3c 0b d3 00 3d
       -0.189436 0.107689954 0.016911823 0.031451266
000180 d2 d9 b0 3d 89 b6 df bd 13 a0 d9 3d cc 25 74 3d
       0.08635296 -0.10923488 0.10626235 0.05960636
000190 1b 54 b7 3d f2 b8 19 bd 4d 4d 7b bc 01 69 ad 3d
       0.08951589 -0.037529893 -0.015338254 0.084672935
0001a0 60 5b e6 bc 2c f6 5f bd 53 a7 8a 3d 41 1f ac bd
       -0.028119743 -0.054678127 0.06770196 -0.08404399
0001b0 cf 18 b5 bd cb 1d 60 3d c1 c2 da bc fd db 0d bd
       -0.088426225 0.054715913 -0.026704194 -0.034633625
0001c0 b0 41 ac 3d 36 75 27 be 16 e7 d8 3c 9d e0 01 3d
       0.084109664 -0.16353306 0.026477378 0.03170835
0001d0 15 3a 3c 3d a6 00 c8 bd cb 9a 80 bb 5b 25 29 be
       0.04595383 -0.09765749 -0.0039247028 -0.16518156
0001e0 9d 3b 97 bd a1 60 cf 3d 14 90 07 bd 0c 06 e7 3d
       -0.07384417 0.101258524 -0.033096388 0.1128045
0001f0 00 12 42 bc 6d c9 de bd 68 8f 23 3d ab 70 78 3c
       -0.011845112 -0.10878263 0.039931685 0.015163581
000200 53 86 8d bc a1 ab 63 3d 07 97 04 3e fd b6 11 3d
       -0.017275965 0.0555836 0.12948237 0.0355749
000210 83 30 3b 3e 5e f2 ce 3d 1a 6e 24 bd 32 b1 11 3c
       0.18280225 0.101048216 -0.040144064 0.008892344
000220 e7 2b 11 be 6d 0e d5 3d ad 0e 95 bc 39 94 f3 3d
       -0.14176904 0.10403142 -0.018195475 0.118935056
000230 8b 73 58 3d 52 92 36 3d d6 08 30 bd 6c fb d3 bc
       0.052844565 0.044573136 -0.042977177 -0.025876723
000240 de 1a c0 3d 37 8d 23 be e4 64 cc 3c 56 f9 fd bc
       0.093801245 -0.15971838 0.024950452 -0.031002682
000250 9e 08 4f bd 09 c4 de bc ac 0f c3 3d 3c 41 55 3d
       -0.050545327 -0.027193086 0.095244735 0.052064165
000260 71 2f 85 bc fc 19 6a bd 57 ee c4 3d 2e bb 13 3e
       -0.016257973 -0.057153687 0.09615772 0.14426872
000270 33 ed 7e bc 22 6a 1a bd b7 c6 af bc a1 4b 08 bd
       -0.015559482 -0.037698872 -0.02145706 -0.03327525
000280 37 4a 38 3e 71 4a 00 be 49 2d 88 bd 3b d0 54 3c
       0.1799706 -0.12528397 -0.066492625 0.012989099
000290 00 70 3f bd f2 13 8c bd 5a 4d 6d bd d1 b5 68 bd
       -0.04673767 -0.06839742 -0.057935096 -0.05681402
0002a0 a3 e1 4a be 07 53 44 bd db f3 19 be 11 87 27 bd
       -0.19812636 -0.047930744 -0.1503443 -0.040900294
0002b0 b4 a1 1e bd e5 78 0a be 0f 23 17 3b fc 40 f4 3d
       -0.03872843 -0.1352268 0.0023061668 0.11926457
0002c0 31 92 72 3c 7f cc a2 bd 64 51 da bd 25 92 5d be
       0.014805363 -0.07949161 -0.10660055 -0.21637781
0002d0 a6 d9 fc 3d cf 8a ea 3c 99 50 12 be 08 19 33 bc
       0.12346201 0.028630642 -0.14288558 -0.010931261
0002e0 e5 73 0b be 6c 7b d1 3c b9 fe e4 3c 97 ed aa 3d
       -0.13618429 0.025571547 0.027953492 0.08346098
0002f0 90 2b 2f bd 1e 36 c6 3d 23 2e da bd 49 67 d1 bb
       -0.042766154 0.09678291 -0.10653331 -0.0063904864
000300 f9 b6 47 be cd 2a 0a be d7 fd 41 bd bf 78 b9 3d
       -0.19503392 -0.1349289 -0.04736122 0.090562336
000310 10 35 22 be 0f 9e c1 bd be 84 19 be 61 23 6d 3c
       -0.15840554 -0.094539754 -0.14992043 0.014473767
000320 c9 50 02 bd 4c 60 06 bd 15 25 9c 3d c8 f3 eb 3d
       -0.031815324 -0.03280668 0.0762426 0.11521107
000330 d2 45 b1 3d 20 01 97 bb 98 5d e3 3d 89 8f 20 3d
       0.08655895 -0.0046082884 0.11101836 0.039199386
000340 ae a2 50 3d 69 a0 2f 3c 5e b6 67 bd 8c 82 82 bd
       0.050936393 0.010719397 -0.056570403 -0.06372556
000350 4e af 37 3d 1e 19 02 bd 8b d9 2d be e3 fa 5b bc
       0.044844918 -0.031762235 -0.16977517 -0.013426515
000360 50 37 65 bb b6 4d 12 3d 30 3f 33 3d b3 8b c1 bc
       -0.0034975596 0.035718642 0.043761432 -0.023626184
000370 ed c7 2e 3d 66 0f 8d 3d 82 06 c7 bd 06 4c b6 bc
       0.042671133 0.06887703 -0.09718038 -0.022253048
000380 54 b4 6d bc 71 4a af 3d e7 57 28 3d 96 06 73 bd
       -0.014508326 0.085591204 0.041099455 -0.059332453
000390 da b5 c9 bd 64 49 8e 3d 56 e8 8d 3d cc 89 8a bd
       -0.098491386 0.06947592 0.0692908 -0.06764564
0003a0 72 6d c7 3d a2 20 50 bd 41 43 a2 bd ce bc 3b bd
       0.09737672 -0.05081237 -0.07922984 -0.045834355
0003b0 f6 dc 12 3d ff ac fc bc 38 e7 06 be d3 1d 3e bd
       0.035855256 -0.03084421 -0.1317414 -0.04641516
0003c0 1e ec 29 be ed 35 d4 bd e4 43 81 bd c0 dd 65 bd
       -0.16593978 -0.10361848 -0.06311777 -0.05611968
0003d0 11 85 20 3d b8 23 79 bd f3 e4 aa bd ce 07 04 bc
       0.039189402 -0.06082508 -0.0834445 -0.008058501
0003e0 0b 7b 82 bd 1c 38 1f 3e 05 f3 2f 3e 08 09 e9 b9
       -0.06371125 0.15548748 0.17182548 -0.00044447952
0003f0 73 b7 ac bd a3 06 cb 3d 65 bd c3 3c 72 e7 d5 bd
       -0.08433428 0.09913375 0.023894021 -0.10444535

fc2.bias f4 [84]
000000 2b 99 d4 3d df a2 8a 3e c1 e3 96 3e 73 1b ff 3d
       0.10380777 0.27077386 0.29470637 0.124564074
000010 dd 35 97 bd 34 c8 42 3d 4d 6c db bd 02 61 ad 3d
       -0.073833205 0.04755421 -0.10714016 0.084657684
000020 4c fc ff 3d 95 ee 67 3c 5d d0 da 3a 8f 79 91 bd
       0.12499294 0.0141560035 0.0016694177 -0.071032636
000030 f8 4c 21 be 74 69 24 bd 1b f6 d2 3d 5e 24 d4 3c
       -0.15752017 -0.04013963 0.10300847 0.025896247
000040 5e 5a 09 bd 6f 3d 05 bd bd db 23 3d 77 ad cb 3e
       -0.033533446 -0.03252929 0.04000448 0.3978078
000050 0e d3 db bd 4c 59 e9 3d 57 08 08 bd 46 e9 bf 3e
       -0.10733615 0.11393985 -0.03321108 0.3748266
000060 fe 98 ba bd 2c 1d 43 3e 28 52 76 3e bf 30 7c bd
       -0.09111212 0.19054097 0.24054778 -0.061569925
000070 bc db ad 3d 56 9c 4e 3e eb dc 81 bd 6e 08 45 bd
       0.08489177 0.20176825 -0.06340965 -0.048103742
000080 57 5d a3 3a 0e 88 1c bd c1 29 aa 3e 42 a7 b0 bd
       0.001246373 -0.03821569 0.3323498 -0.08625652
000090 ab b6 c9 bc a0 54 13 3e 67 a4 8f 3e a5 1c a9 3d
       -0.024623236 0.1438775 0.28055117 0.08257417
0000a0 b1 67 e1 bd 70 72 0e 3f 5e ba 79 3f 0d 09 3f bd
       -0.11006106 0.5564337 0.9755 -0.04663949
0000b0 96 13 b0 3d ca fe 84 bd b6 43 a1 bd b2 0f be 3d
       0.08597486 -0.0649391 -0.07874243 0.092803374
0000c0 4f e0 af 3c 0a 10 2d be c8 48 a1 3e d9 a5 ae bd
       0.021469263 -0.1690065 0.3150084 -0.08527727
0000d0 5a 3f 95 bd 55 6d d1 bd 9d b2 b5 3c ce d4 46 bc
       -0.07287474 -0.102259316 0.022179896 -0.0121356975
0000e0 00 29 68 3c 34 9a 69 3d 59 3d b4 3b 27 0b aa 3e
       0.014169931 0.057031825 0.0055004773 0.33211634
0000f0 67 aa b6 3e f9 f8 ce 3e b4 75 e5 3e 8c 61 90 3d
       0.35676882 0.40424326 0.44816363 0.070498556
000100 ce 3f 47 3d 85 9b 8e 3e a9 d9 b9 3e 51 65 67 bc
       0.048644833 0.27853027 0.36298874 -0.014123277
000110 07 8b 95 3e bd 20 65 3e 87 7d d5 bd 4a 33 8f 3e
       0.29207632 0.2237577 -0.10424333 0.27968818
000120 16 c9 f1 3d eb fc ea bb 13 90 84 3e 6e 8d ca 3d
       0.11805932 -0.0071712635 0.2589117 0.09890257
000130 14 8f 90 3e 7f 91 e0 3e 37 7d 8f bd 9d 6a 8d 3d
       0.2823416 0.43861005 -0.07006305 0.069051005
000140 43 9c 03 bd 7a f8 ca bd 1f b5 f7 3d b8 0a 57 bd
       -0.032131445 -0.099106744 0.12095093 -0.052500457

fc3.weight f4 [10, 84]
000000 16 f6 b8 3d 35 41 5a be 6c 30 cf bb ab cd ea bd
       0.09031312 -0.21313937 -0.006322911 -0.11465009
000010 0c f6 fe 3d 6b fc 82 3d 84 9d f6 bd 55 16 6e be
       0.124492735 0.06395801 -0.120417625 -0.23250706
000020 bb c4 cd bc 6a 63 e1 bd 1f 14 62 bc d4 99 39 be
       -0.025118222 -0.1100529 -0.013798743 -0.18125087
000030 01 b2 31 3c 06 fd 16 3e b7 8f 0e be 57 7f f1 3c
       0.010845662 0.14744958 -0.1392201 0.029479666
000040 bb 53 a6 3d d7 e1 26 be 06 3d 83 3d 2f 06 64 3e
       0.08121439 -0.16297089 0.06408124 0.22267984
000050 af 68 97 3d 39 66 85 3e 64 12 56 3d d2 76 05 3e
       0.07393014 0.26054552 0.052263632 0.13033608
000060 ff 93 5d 3b 6b 3d e1 3d 41 ff 01 bd 4d 69 03 3d
       0.0033810136 0.10998043 -0.03173757 0.032082845
000070 c3 7b 93 3d 62 05 fc 3d 2c 3e 66 3d 32 d1 84 bd
       0.0720134 0.12305714 0.056211635 -0.06485213
000080 4b 54 e1 3d 8a a6 fc 3b 2a aa 93 be ac 81 f3 3d
       0.11002406 0.0077102827 -0.28840762 0.11889967
000090 7d 9c 4e 3c 3c a9 12 be e9 0b 7f 3e 67 0a fc bd
       0.012610552 -0.1432237 0.24906887 -0.123066716
0000a0 77 6b c1 bc e2 a1 03 3e e0 ee b0 be 73 43 0f 3d
       -0.023610814 0.12854722 -0.34557247 0.034976434
0000b0 c2 63 ca 3d 78 be 21 3e 98 26 20 bd dd ce 0a be
       0.098823085 0.15795314 -0.039099306 -0.13555475
0000c0 69 82 88 bd 8c 5d a3 3e 26 af 21 be dc 8a 85 bd
       -0.06665499 0.31907308 -0.1578947 -0.06520626
0000d0 dc 33 b3 bd fb 2c 77 bd 05 32 9b 3e 91 d3 ab 3e
       -0.08750126 -0.06034563 0.303116 0.3355985
0000e0 c8 cd ec 3d c1 4b e5 3d 41 3d 84 3d 6b eb 16 3e
       0.11562687 0.111960895 0.06456996 0.14738242
0000f0 48 a6 2c be 39 52 34 be c7 41 11 3e 6c be 1c 3e
       -0.16860306 -0.1760949 0.14185248 0.15307015
000100 6d dc 7c bd f5 ff 58 be 66 d9 62 be aa 54 28 3e
       -0.061733652 -0.2119139 -0.22153243 0.16438547
000110 a2 35 4b be ad 4f df bd 8c 14 bc 3d 04 ff a4 3d
       -0.19844678 -0.10903869 0.091836065 0.08056453
000120 2d 2d 24 bc a7 09 c9 bd 47 02 43 bd 13 a0 19 3e
       -0.010020536 -0.09816294 -0.047609594 0.1500247
000130 0c 30 a5 3e d9 1f 8b 3e 68 2e cf 3a 41 da 95 3d
       0.3226322 0.27172735 0.0015806677 0.07317019
000140 99 cc d0 bd f3 0f b9 3d 59 0e 41 3e 2e 08 9c bd
       -0.10195274 0.09036245 0.1885313 -0.07618748
000150 3d 50 c9 bd da b9 8e be fe de 87 be b9 d1 05 be
       -0.09829757 -0.27876168 -0.26537317 -0.13068284
000160 b7 a9 21 3e 35 37 e9 3a b9 f7 cc 3d 46 62 55 3d
       0.15787397 0.0017792942 0.10008187 0.052095674
000170 c9 42 f5 3d 46 ec d1 3c 5c b8 8b 3d 90 30 c9 bd
       0.11975629 0.02562536 0.06822273 -0.09823716
000180 a4 7e 66 3e e7 3e 53 3e 01 29 18 be 9c 49 da bd
       0.22509247 0.20629464 -0.14859392 -0.10658571
000190 ea 15 f7 3c 12 68 1a 3d 71 5b 53 3e 7f aa a9 be
       0.030161817 0.037696905 0.20640351 -0.3313789
0001a0 be 38 0f 3e 7c 45 04 3d b5 aa 1b bd a3 a5 e5 be
       0.13986489 0.032292828 -0.038004596 -0.44852933
0001b0 c8 30 bf bd ba 4a 7b 3e 44 4b 1e be f5 c0 a6 bd
       -0.09335476 0.24540225 -0.15458399 -0.081422724
0001c0 b5 00 80 3d b2 f5 ed bd c6 c2 cf 3c d0 43 99 3d
       0.06250135 -0.11619128 0.02536143 0.07483637
0001d0 20 ac 32 3e f7 02 9a 3e 6e b2 24 3e 68 8e a6 3d
       0.17448473 0.30080387 0.1608369 0.081326306
0001e0 20 75 a0 3e a3 73 90 3d 6f f2 61 3e 9b 54 24 bd
       0.3133936 0.07053306 0.22065137 -0.04011975
0001f0 7b 01 7a 3d 93 26 f7 be 34 b9 5e be e8 b7 0f 3b
       0.061036568 -0.48271617 -0.21750337 0.0021929685
000200 17 82 d3 bd 8a b1 dd 3d 89 b0 b4 3c c9 1e 64 bd
       -0.10327547 0.108248785 0.022056835 -0.05569342
000210 75 98 97 bc 7e 6e 0f be 72 83 07 be a8 b0 ca 3d
       -0.018505314 -0.14006993 -0.13233736 0.09896976
000220 f6 51 d5 bc 7d 7d 2f bd 56 ba a1 bd df c8 52 bd
       -0.026040059 -0.042844284 -0.07896869 -0.051461097
000230 07 68 4e bd ca 8e 32 be ac 25 1b be e3 78 9a 3e
       -0.050392177 -0.17437282 -0.1515109 0.30170354
000240 01 0b e7 bc 20 8f 6d be a2 f8 69 be 2c c1 07 be
       -0.02820349 -0.23199129 -0.22848752 -0.13257283
000250 1c 3d e8 3d 00 31 25 bb a0 53 a6 bd ea 0c ad 3d
       0.11339781 -0.0025206208 -0.08121419 0.08449729
000260 03 ab 65 bd c4 16 d1 3d 08 06 06 3e f4 b6 84 3e
       -0.056071293 0.1020942 0.13088238 0.25920832
000270 14 e7 d8 bd f0 c9 3c bd e6 3e 8d bc 60 76 25 3d
       -0.1059095 -0.04609102 -0.017241906 0.040396094
000280 70 2e 18 be a5 d3 aa 3d b9 e4 cf 3e 84 06 6b 3e
       -0.14861465 0.08341149 0.4060419 0.22951704
000290 d7 0f 96 3d 72 2a 85 3e b4 2e 7b 3e 37 7f f3 bc
       0.0732724 0.26008946 0.24529535 -0.029723747
0002a0 32 98 a5 bc 09 ee 4d 3e a7 a5 a6 3e aa c4 74 3e
       -0.020214174 0.20110334 0.32548258 0.23903146
0002b0 16 7d 0c 3e 6d a7 1e be b3 95 3f 3e 14 4e 70 bd
       0.13719591 -0.15493555 0.1870945 -0.05866821
0002c0 5e 0c 23 3d 29 09 11 3e 25 89 6c 3d f3 2e 5b 3e
       0.039806716 0.1416365 0.05774798 0.21404628
0002d0 6d dc 44 3d 7e c3 35 be a3 ce a1 bd 6d fe 97 bd
       0.048061777 -0.17750356 -0.07900741 -0.07421575
0002e0 fe 1d ac 3b d1 91 a1 3c c4 52 ee bd 35 3c 5e 3e
       0.005252599 0.019722851 -0.1163688 0.21702655
0002f0 63 d6 2b 3e fb b7 3f 3d f4 d1 00 3e a8 33 d2 3b
       0.16781001 0.046806317 0.12580091 0.0064148493
000300 57 2b cb bd a3 22 1c bd f3 73 34 3e d8 fe db bd
       -0.09920376 -0.03811897 0.17622356 -0.10741967
000310 6c 2c ac 3d b6 53 a7 bb 21 df 4d bd 83 9b d5 3d
       0.0840691 -0.0051064147 -0.05026162 0.10430052
000320 89 2b 0f 3d 0a 17 14 be 51 9d 79 be 7b b0 85 3c
       0.034953628 -0.14461914 -0.24376418 0.016319504
000330 db a1 3e be 84 c3 cc bd 34 91 81 bd 7a 12 12 3e
       -0.1861643 -0.09998229 -0.063265234 0.14264861
000340 a5 dd ed bd bb d6 3f 3e cf 25 36 3e 59 12 2e bd
       -0.11614541 0.18734257 0.1778786 -0.042497966
000350 03 2c b0 3c 62 eb d0 bb 45 72 cf 3d de f5 08 be
       0.021505361 -0.006375716 0.10129217 -0.13375041
000360 8b 20 41 3b 67 51 1c 3e c2 cd c9 3b 43 da 84 bd
       0.002946886 0.15265428 0.0061585614 -0.064869426
000370 8e 07 f3 3d f0 ad da 3d 0e a2 7b 3e 6d 65 2a bd
       0.11866675 0.10677707 0.24573538 -0.041600633
000380 e4 8f 14 3d 53 9a de 3d 30 7f 64 3c a8 35 81 be
       0.036270037 0.10869279 0.0139463395 -0.2523625
000390 16 1c 78 3e 38 6c d5 bd 6a a3 b3 bd 56 4e da 3d
       0.24229464 -0.10421032 -0.08771403 0.10659473
0003a0 8e f4 8c bd b3 c6 0b be 62 c8 25 be 43 37 80 bd
       -0.068825826 -0.13650016 -0.16189721 -0.0626054
0003b0 bc 60 d1 3c 6e 3e 15 3e d8 14 18 3c e4 91 d5 3d
       0.025558822 0.14574596 0.009282313 0.10428217
0003c0 1a 52 68 3e 43 b5 63 3d 66 45 68 3e f4 ea 06 be
       0.2268757 0.055592787 0.22682723 -0.13175565
0003d0 8e 12 76 3d 60 23 23 3d 1c 64 0a 3c f0 5b 20 be
       0.06007629 0.039828658 0.0084467195 -0.15660071
0003e0 39 96 94 3d b4 db 3e 3e 3f fe 17 be 3b f0 86 3d
       0.07255215 0.18638498 -0.14843081 0.06588789
0003f0 f5 57 57 bd 62 d2 34 3e 81 cb 48 3c 99 b7 0f 3d
       -0.052574117 0.1765838 0.01225555 0.0350872

fc3.bias f4 [10]
000000 01 7a c4 be 0e 7d 2c bf 60 c0 05 be a6 d2 e5 3e
       -0.38374332 -0.6737832 -0.13061666 0.44887275
000010 fc 58 39 3f f4 ab c0 bd e5 39 2c 3e 5b 92 c4 be
       0.72401404 -0.094077975 0.1681896 -0.3839291
000020 fc 33 b5 3e 8e 36 11 be
       0.35391223 -0.14180967
